MachineLarning/work/trainedDNN/model_weights.pth (torch, 523802 bytes, 22 tensors)

conv1.weight f4 [32, 4, 3, 3]
000000 5e 9b 16 bd 0a 9b 81 be 63 19 aa bd de 9a 5b 3d
       -0.036769263 -0.25313598 -0.083056234 0.05361449
000010 3b 79 89 3e 3f a9 29 be 4b 60 fe bd cd 5d eb bb
       0.26850304 -0.16568469 -0.1242071 -0.007182813
000020 50 39 53 3e a6 42 ee 3d 73 49 71 bd 1f fe b7 bd
       0.20627332 0.11633806 -0.058907937 -0.089840166
000030 71 ae 64 3e 79 f0 42 3e 83 4d 35 3d 3a c2 f3 bd
       0.22332169 0.19037046 0.044263374 -0.1190228
000040 93 c0 45 be 01 1d 73 3d 0f fb c8 bd 6c 91 04 be
       -0.19311742 0.059353832 -0.098135106 -0.12946099
000050 2f b5 0c 3e a0 f4 97 3d f8 e6 26 3d 3c 4a 32 3d
       0.13740991 0.074197054 0.040747613 0.043527827
000060 c3 98 47 be e4 93 4f be 61 67 ae 3d 7d 9b 38 bc
       -0.19491868 -0.2027126 0.08515812 -0.01126754
000070 fc 28 0b 3a 90 6f d6 3c 41 31 50 3c 23 26 8d 3c
       0.00053085363 0.026176244 0.012707056 0.017230099
000080 32 c8 6a bb 16 4a a9 3c 9e ca ee bc 77 d3 6f 3d
       -0.0035824892 0.02066521 -0.02914935 0.058551278
000090 03 d8 05 bc 85 bb f5 3d 42 77 ed 39 fe a1 36 3e
       -0.008169177 0.11998657 0.00045293017 0.17835233
0000a0 da c2 a2 bd 58 54 42 be cf 3b 8d bd 98 68 09 3e
       -0.07947321 -0.18977487 -0.06896173 0.13418806
0000b0 1f 87 a4 bd 91 c4 18 be fa 3f 0e 3e af b6 7f 3c
       -0.08033585 -0.14918734 0.13891593 0.01560752
0000c0 d1 a6 e5 3d 7e 45 e7 bd da e8 b8 bd a9 d1 bb 3d
       0.11213458 -0.112925515 -0.09028788 0.09170849
0000d0 e7 c4 26 3e ad 9c a0 bb 3e b8 46 3d 88 ec 81 bd
       0.1628605 -0.0049014897 0.04851555 -0.06343943
0000e0 1f 66 f3 bd 9c 40 b4 3d ab cb 57 3c ed 9e 90 be
       -0.118847124 0.08801386 0.013171117 -0.2824625
0000f0 d5 54 52 be 60 23 5b 3e 06 59 84 be a3 f6 40 3d
       -0.20540173 0.21400213 -0.2584917 0.04711021
000100 29 05 07 3d c8 06 4a 3d 92 72 dd bb 28 01 0a be
       0.032963905 0.049322873 -0.0067580426 -0.13477004
000110 fc 5b f1 bd ae 89 36 3d 7e 94 8b bd b6 67 0d 3e
       -0.11785123 0.044564895 -0.06815432 0.13809094
000120 5a 3e 98 bd 20 e5 68 bd 97 d0 f0 bd 5f 6e 62 3e
       -0.074337676 -0.056859136 -0.11758535 0.22112416
000130 1f 80 c1 3b fd 40 41 3e ee ea 1a be 22 3d a3 bd
       0.005905166 0.18872447 -0.15128681 -0.079706445
000140 b4 ec 16 3e 8b ac ea 3c 18 87 0b be 65 16 a2 be
       0.14738733 0.028646728 -0.13625753 -0.3165771
000150 09 5a 26 bc 70 4d 33 3d ba f6 5f 3d de ae 42 3d
       -0.010153302 0.043775022 0.054678656 0.047530048
000160 fb 0a 01 be c0 9a d9 3d 8d 8b c1 b9 b5 ba 4d bd
       -0.12601845 0.10625219 -0.00036915802 -0.050226886
000170 7f 26 91 be 76 0c d0 3d 87 78 04 3e b1 44 50 3e
       -0.28349683 0.10158627 0.12936603 0.20338704
000180 c4 a3 54 be fa b2 cc 3d bc fa fe bd fd 84 c0 3c
       -0.20765597 0.099950746 -0.124501675 0.023500914
000190 d3 c4 4b bc ab bb ec bc 6f eb bf 3c f0 f3 0e be
       -0.012437063 -0.02889808 0.023427693 -0.13960242
0001a0 cb b4 33 3d 50 06 4d bc de 0d d5 3c 96 00 06 bc
       0.04387359 -0.012513712 0.026007589 -0.008178851
0001b0 01 4c 50 bd 9d 92 81 3d 42 f2 e6 bd b7 9c e3 3d
       -0.050853733 0.063267924 -0.11276676 0.11113875
0001c0 29 b1 29 3e 65 36 55 3e d0 10 09 3d f5 d9 7d bd
       0.16571487 0.20821531 0.0334633 -0.06197544
0001d0 46 a3 17 be df f2 ee bd 75 f2 a1 bc 58 b1 d1 bc
       -0.14808378 -0.11667418 -0.019768933 -0.02559726
0001e0 f4 5e f6 3d 4c 4f 8b 3d 29 90 8f 3e 59 05 5f be
       0.120298296 0.06802234 0.28039673 -0.21779384
0001f0 57 97 65 be 71 9a 48 be 34 79 7e ba 8b 6d a6 bd
       -0.22421013 -0.19590165 -0.0009707392 -0.081263624
000200 e6 57 86 be 69 99 29 bd 73 48 0e 3e 74 9f 05 3e
       -0.26238936 -0.04140607 0.13894825 0.13049108
000210 e7 c7 81 3d ba 4d 90 3d 28 88 22 be f9 18 0b bd
       0.063369565 0.07046075 -0.15872252 -0.033959363
000220 5e 43 1f 3c 72 52 11 3c 70 76 b2 3c 6c 73 a6 bd
       0.009720651 0.008869754 0.021784991 -0.08127484
000230 78 48 5c bb f5 2b 37 3d 59 2b 0e bd 8f 7a 1b 3d
       -0.003361253 0.044719655 -0.03470931 0.037958678
000240 eb e8 c6 bd 69 e6 b7 3d d6 35 17 3e 9e 63 ca bc
       -0.09712394 0.08979494 0.1476663 -0.024705704
000250 4d a0 db bd 18 28 c4 3d a9 e1 7d 3e ae 81 7b be
       -0.10723934 0.0957796 0.24793114 -0.24561188
000260 44 66 66 bc cf 0d 19 be 21 67 3f bd 15 9a 6d 3b
       -0.014062468 -0.14946674 -0.04672921 0.003625517
000270 d8 1a a9 bd d1 4b 87 be 7c a3 2c 3e f9 54 93 3d
       -0.08257073 -0.2642503 0.1685924 0.071939416
000280 00 28 20 3c b1 3a 8f bd 2c fd 53 be f5 eb 1f be
       0.009775162 -0.06993616 -0.20702046 -0.15617354
000290 fd e9 08 3c 3d ce 2f 3e 9b 0c de bd 72 b2 d8 bc
       0.008356568 0.17168517 -0.10842248 -0.026452277
0002a0 e5 66 82 3e 30 0c 50 be bc ba 03 3d e8 83 c5 3d
       0.25469127 -0.20317149 0.032160506 0.096443
0002b0 aa fa 23 bd e0 02 d3 3d 3c ea 33 be fe 35 65 bc
       -0.040033974 0.10303283 -0.17569822 -0.0139899235
0002c0 2d 18 47 bc 52 2a d3 3d 51 f0 08 bd 0c ec 37 bb
       -0.01215176 0.10310806 -0.03343231 -0.002806428
0002d0 cb 22 91 bc 23 94 1b 3e eb a4 dd 3b c9 05 f7 bd
       -0.017716786 0.15193228 0.0067640445 -0.1206165
0002e0 72 40 e9 3d b3 b0 14 3d 4e 43 4d be e2 81 b1 bb
       0.11389245 0.036301326 -0.20045206 -0.0054170946
0002f0 ea 8f 38 3e ac 3c 37 be 56 0e 7c 3e 77 c4 30 3e
       0.18023649 -0.17894238 0.24614844 0.17262445
000300 56 09 64 bc eb d6 89 3d e4 35 21 3d 78 fc 4f bd
       -0.0139182415 0.067304455 0.039358035 -0.050777882
000310 9e e6 7e 3d 1a 43 d8 3c fd 5f 52 bc 7d 07 8e 3d
       0.062231652 0.026399184 -0.012840268 0.06935022
000320 9f 6a 47 bd 5c 45 ff bd fa 5a 58 3d e5 fe c1 bc
       -0.048685666 -0.12464401 0.052821137 -0.023681113
000330 08 51 9a be a4 8e 56 3e d4 27 e2 3d 15 e8 97 bc
       -0.30139947 0.2095285 0.11042753 -0.018543283
000340 06 ca 3f 3d a1 fb df bd fe d1 ee bb 46 01 44 3e
       0.046823524 -0.10936666 -0.0072882166 0.19141111
000350 22 e6 7a bd ee a4 c2 bd ce 62 ca 3d 26 e6 8b 3b
       -0.061254628 -0.09504114 0.09882127 0.004269379
000360 56 c4 6b 3d d9 b8 2c be 23 2e ec bd 6a 2f 0b be
       0.057560287 -0.16867389 -0.115322374 -0.13592306
000370 ea 06 0b bd c5 3e 27 3c 8e 86 5c bd 9e 1c 00 3e
       -0.03394214 0.0102078365 -0.05383926 0.12510917
000380 6f 3b 40 3b 86 55 34 3e 91 ac 75 be 7a 20 04 be
       0.00293323 0.1761075 -0.2399161 -0.12903014
000390 bc 00 5c be c7 d3 a5 bc 06 49 2b 3e 32 bb 59 be
       -0.21484655 -0.020242585 0.16727075 -0.21262816
0003a0 7d aa f9 3d 3f 47 f6 bc ad f2 67 3c c3 d0 22 be
       0.12190721 -0.03006327 0.0141569795 -0.15899949
0003b0 fb 52 e5 bc 4b c9 41 be 74 d4 da bd 90 95 3a 3e
       -0.02799367 -0.18924443 -0.106850535 0.18221116
0003c0 89 3a bc 3d 27 57 c9 3d 8f fc 3d be e1 fa 45 3d
       0.09190852 0.09831076 -0.18553375 0.04833496
0003d0 d0 aa 4a bd 38 89 78 3d 52 8b ac bd 02 9e 8b bd
       -0.049479306 0.060677737 -0.08425011 -0.06817247
0003e0 62 b0 b0 3d b2 6a e7 3d ea 8d bb 3d a9 2e 3f bc
       0.08627392 0.112996474 0.09157927 -0.0116688395
0003f0 9a 4e 59 be 11 20 1b be 8d d2 c5 bd 5e 8f 83 3e
       -0.2122139 -0.15148951 -0.096593 0.25695318

conv1.bias f4 [32]
000000 99 3f 12 be a1 1e 52 3d b5 85 5d 3b a6 51 4c bd
       -0.14282073 0.05129874 0.003380162 -0.049882554
000010 98 61 3c be f3 b4 25 be 7f 4d 29 be 5b 57 50 be
       -0.18396604 -0.16182308 -0.16533469 -0.20345823
000020 e6 f2 59 bd d9 8c c3 3d e9 67 7d bd c0 62 ef bd
       -0.05321016 0.09548349 -0.061866675 -0.11688757
000030 e5 86 84 3d 05 4d 0d 3c d9 40 fa bd 92 d4 19 3e
       0.064710416 0.00862432 -0.122194 0.15022495
000040 6f e5 0f be e3 67 57 3d df e6 c5 3d f1 50 ca 3c
       -0.14052366 0.05258931 0.09663176 0.024696799
000050 86 5c a7 3c 81 11 2d bd bf f7 0f bd 12 7c 8a bc
       0.02042986 -0.04225302 -0.03514838 -0.016904864
000060 02 98 47 be 78 0e 72 bd 50 f4 f1 3c 82 4f a1 3d
       -0.1949158 -0.05909583 0.029535443 0.07876493
000070 a0 c5 bf bd df 11 86 bd e4 75 62 3d 94 97 13 be
       -0.09363866 -0.065463774 0.05528821 -0.14413291

conv2.weight f4 [32, 32, 3, 3]
000000 8d a0 28 3d 6b 76 0b bd c6 3b 81 3c 92 e7 24 bd
       0.04116874 -0.03404848 0.015775573 -0.040259905
000010 da c3 fa bc 58 8b ed 3c 22 5c 44 bd e0 56 4b bd
       -0.030610967 0.028997108 -0.047939427 -0.049643397
000020 db 49 31 bc d7 b1 5f 3d 86 56 56 3d a7 fa 83 3c
       -0.010820831 0.05461296 0.05232861 0.016110731
000030 eb 96 56 bd 1a 83 2d 3d 89 e4 15 3d e0 68 13 bd
       -0.05239002 0.042361356 0.0365949 -0.03598869
000040 df f5 5a 3d 90 1a b6 bc 18 21 3f 3d 02 45 70 3d
       0.053457137 -0.022229463 0.04666242 0.05865956
000050 04 b8 14 bd 88 19 e6 3a a9 f3 8c bc bf b0 8b b9
       -0.036308303 0.0017555216 -0.01720603 -0.00026643832
000060 29 16 03 bd 40 24 1e bd 59 a0 10 bc bc a1 49 3c
       -0.032003555 -0.03860879 -0.008827292 0.012306627
000070 6e 35 0e bd 58 dc 4a bd cd 8c c1 bc de 26 1c 3c
       -0.034718923 -0.049526542 -0.02362671 0.009530751
000080 5b 61 39 3c aa 32 b6 bc 97 48 b8 3c 67 47 49 bd
       0.011314715 -0.022240955 0.022495551 -0.04914036
000090 bc 98 68 bd fa c6 20 3d 41 a6 96 bb 77 56 e9 bc
       -0.056786284 0.03925226 -0.0045974557 -0.028483612
0000a0 d2 3e db 3c 05 e6 56 3d 22 8d 2a 3b 50 01 e6 3c
       0.026763353 0.052465457 0.0026024063 0.028076798
0000b0 ca 42 11 3d 64 9f 83 3c 6a 76 ee bc c6 ee 1d bc
       0.035464086 0.016067214 -0.029109199 -0.009639448
0000c0 81 30 9d 3c 98 a0 04 bd 10 de 58 bd 78 ad 4d 3c
       0.019188168 -0.032379717 -0.05294615 0.012553565
0000d0 37 73 df 3c c4 12 67 3d 3a d6 2c 3d dc 04 5d bd
       0.027276618 0.05641438 0.04219649 -0.053959712
0000e0 42 5a 4d bd 3a d7 99 3c 23 8c 9f bc bc 10 0a bc
       -0.050134905 0.018779386 -0.019476002 -0.008426841
0000f0 27 e7 1a 3d 94 87 5a 3d 96 6a 49 bd 97 45 e4 3c
       0.0378181 0.053351954 -0.049173914 0.027865214
000100 d3 96 00 bd 15 5a 26 bd b6 61 30 3d f8 fa 4f bd
       -0.031393837 -0.040613253 0.043061934 -0.05077645
000110 7b a2 b2 bc 94 e1 ac 3a 5f b0 f0 3c 8d 73 18 bd
       -0.021805992 0.0013189786 0.029380975 -0.037219573
000120 54 67 ed 3c bd b6 06 3d 5e a3 52 3d fd da 2d 3d
       0.028979935 0.032889117 0.05142533 0.04244517
000130 37 56 07 bd ff 59 16 bd 38 e8 05 3d 37 26 01 3d
       -0.033041205 -0.03670692 0.032692164 0.031530585
000140 28 94 3d 3c ff b7 6a bd 84 a1 d1 bb b7 6f 5b bd
       0.011570968 -0.05730438 -0.006397428 -0.053573336
000150 7d eb 24 bc 16 8f 05 bd 6d 15 20 bd 2a 30 2d 3d
       -0.01006591 -0.03260716 -0.039082933 0.04228226
000160 a5 db 84 bc 8c c8 40 3c 9f dc 9b bb a3 e9 41 bd
       -0.016218016 0.011766564 -0.0047565247 -0.047341954
000170 d9 d8 d1 bb 45 79 2e bd 69 1b 01 bc c9 50 5e 3d
       -0.006404024 -0.04259612 -0.00788007 0.05427626
000180 e4 26 ca bc 8b 35 8f 3c 1f 44 32 3d 31 dc b6 bc
       -0.024676748 0.017481586 0.043521997 -0.022321792
000190 5d b3 1a bd 48 f4 45 3d 8c e3 7d bc 02 e6 27 bd
       -0.03776871 0.048328668 -0.015496146 -0.040990837
0001a0 02 70 e7 39 86 80 4a 3d 53 09 01 3d ee e5 e0 bb
       0.00044143206 0.049438976 0.031503033 -0.0068633473
0001b0 28 17 6b 3d 57 50 1a 3d 2e ba 52 3c 23 99 22 3d
       0.05739513 0.037674274 0.0128617715 0.039696824
0001c0 94 81 3c bd 36 85 4a 3d fc a5 76 bc a2 50 19 3d
       -0.046022013 0.049443446 -0.015054222 0.037430413
0001d0 77 97 c1 ba 12 46 1a 3d dd c0 f4 bc c9 eb 3d 3d
       -0.0014769871 0.03766448 -0.02987712 0.04636744
0001e0 e3 48 0c 3d cc 35 4f 3d d2 2e 0d 3c 6b d9 3b 3c
       0.034249198 0.050588414 0.00861712 0.011465411
0001f0 12 0a 4a bd 70 31 d1 bc c9 36 0a 3d 95 40 7b bc
       -0.04932601 -0.025536269 0.033743653 -0.015335222
000200 98 5e 3e 3d 75 aa 6d 3d 51 1e e6 3c 5f c0 0f bc
       0.04647693 0.05802389 0.028090628 -0.008773892
000210 d5 ad 35 3c 10 94 03 bc 5e f2 0a bd 0c 09 58 bd
       0.011088808 -0.008030906 -0.033922546 -0.052743003
000220 54 32 cd 3c 75 64 4b bd 79 32 4b 3d 9a cd 4e bd
       0.025048412 -0.04965635 0.04960868 -0.050489046
000230 76 fa 68 bd 4a 60 d3 3a cb 6c c3 3c 0b 30 fc bc
       -0.056879483 0.0016126719 0.023855587 -0.030784627
000240 07 da 33 bd dd 2c 6c 3d 56 9b 40 bd df a3 43 bd
       -0.0439091 0.057659972 -0.04702314 -0.0477637
000250 cc c8 5c bd 2a c3 e0 bc 9a a8 e6 3a 89 bb 0a bd
       -0.053902432 -0.027436811 0.0017597855 -0.033870254
000260 79 12 ae 3c 1a e7 56 3d 10 5a c1 bc 48 e5 a8 3c
       0.021249043 0.05246649 -0.023602515 0.020617142
000270 03 02 bf bc 73 e8 33 bd 45 6c d5 3c ff 47 2c bd
       -0.023316389 -0.043922853 0.026052603 -0.04206085
000280 6c b8 c9 bb b6 dc 2a 3d a1 a2 33 3c 16 18 2d bc
       -0.006156018 0.041714393 0.010964067 -0.010564825
000290 2a 4b 44 3c 2f 16 30 bd 99 35 10 bd 4b 0f 36 bb
       0.011980811 -0.042989906 -0.035207365 -0.0027780111
0002a0 20 8e 11 3d 09 b0 5d bd 6f 02 74 3c ec 3f 51 3d
       0.03553593 -0.05412296 0.014893158 0.05108635
0002b0 a1 ab 39 bd 19 49 84 bc 8b ce 2b bd ef da e3 bc
       -0.045329694 -0.016148137 -0.04194502 -0.027814357
0002c0 5f eb 69 bc 19 88 f0 bc d4 79 04 3d e6 43 3f bd
       -0.014277308 -0.029361771 0.032342747 -0.046695612
0002d0 bc cb 98 ba b2 0b a0 3c d1 4b fe 3c 4e 6c c2 bb
       -0.0011657397 0.019536827 0.031042011 -0.005933321
0002e0 3e 5d 87 3b 92 84 1e bd 75 82 b3 bc 1c eb f8 bc
       0.0041309884 -0.038700648 -0.021912793 -0.030385546
0002f0 18 ea de 3c 05 57 04 3d 93 df 39 ba 41 05 f0 3c
       0.027211234 0.03230955 -0.0007090505 0.02929938
000300 16 c4 0d bd f7 48 12 bb 6b be ed bc a7 88 41 3d
       -0.03461083 -0.0022321322 -0.029021462 0.047249462
000310 de ca 5b bd 4b 0c 6c 3d 2f ec 4b bd bf ea 43 bd
       -0.053660266 0.05762891 -0.04978579 -0.047831293
000320 c8 d5 de 3c 2d 5a 23 3c 3c 6c 60 bd d0 c1 37 3c
       0.027201548 0.00997023 -0.05479072 0.011215642
000330 80 f1 39 3d 08 0a 9f 3c 55 21 7f bb d3 2e f0 3c
       0.045396328 0.019413963 -0.003892978 0.029319203
000340 16 27 63 3d cc 46 31 bd da 11 9f bc 1b 43 2f bc
       0.055457197 -0.043280408 -0.019417692 -0.0106971515
000350 c4 42 e6 3c a0 af d0 bc 62 87 0b 3d c3 a7 d1 3c
       0.028108008 -0.02547437 0.034064658 0.02559269
000360 bd 4e ad bc d7 58 ce 3c 45 be 18 bc 19 fe e3 bc
       -0.02115571 0.025188847 -0.009322708 -0.027831124
000370 32 75 2b bd f6 4c 67 3d 33 8e 49 bc ce 06 50 bb
       -0.041859813 0.05646988 -0.012301969 -0.0031742337
000380 91 34 d2 3c 43 83 f5 bc 38 fb 3b bd fc 4c 83 bc
       0.025659831 -0.029969817 -0.045893878 -0.01602792
000390 80 4f fe 3c 60 1b d9 bc db d4 3d 3b f1 e2 4c bb
       0.031043768 -0.026502311 0.0028965983 -0.0031263197
0003a0 ca 59 58 3a 17 4f 6e 3d 7c 17 3a bd 6f 92 85 3c
       0.00082531257 0.058180895 -0.045432553 0.016305177
0003b0 8a 31 9f 3c b9 5d 5f 3c cf 2c f9 bc b9 05 1d bb
       0.019432802 0.013633185 -0.030416874 -0.002395971
0003c0 1d 19 1f 3b 7f fe 63 3d fa ba 62 bc 63 10 ef 3c
       0.0024276443 0.05566263 -0.013838524 0.029182618
0003d0 40 a0 1a 3c 7c 7a 69 bd 10 f7 86 3b de 78 56 3d
       0.009437621 -0.057001576 0.0041188076 0.05236136
0003e0 c0 ae e1 3c 9e 07 47 3d 2f 11 95 3c 25 b7 5a 3d
       0.027549148 0.04859125 0.01819667 0.053397316
0003f0 1e b1 c4 bc 6d c3 6c bc 28 61 02 3d 8b f9 12 bd
       -0.024010237 -0.01445089 0.031830937 -0.035882514

conv2.bias f4 [32]
000000 65 a3 16 3c db ec 3e bd 28 80 70 3d 29 ee 25 bd
       0.00919423 -0.0466126 0.05871597 -0.04051033
000010 1f 35 27 bd 74 e7 66 3d 63 46 99 bc 4a 53 c2 3c
       -0.040822145 0.056373075 -0.01871032 0.023721356
000020 01 8f 0a bd 23 5d c5 3b 79 ff 36 bc da 98 34 bd
       -0.033827785 0.0060230657 -0.011169308 -0.044091083
000030 0d 18 a5 3c 39 54 a9 3c 59 46 d4 3c 42 38 64 bd
       0.02015307 0.020670043 0.02591245 -0.055717714
000040 14 10 a3 bc 25 77 1f 3d aa d0 0c bd e0 f9 28 bd
       -0.019905128 0.038931984 -0.034378685 -0.041253924
000050 19 eb 1d 3d 68 95 55 bd 44 76 d1 b9 60 14 04 bd
       0.038554285 -0.052144438 -0.000399517 -0.032245994
000060 cf eb cb bb 4a 91 15 bd cc 20 e7 3c 85 9f c0 bc
       -0.006223179 -0.03651551 0.028213881 -0.023513565
000070 9c 38 10 3d 9b 12 4a bc 3c 38 15 3c b7 a6 68 3d
       0.035210237 -0.012333537 0.009107646 0.056799617

conv3.weight f4 [64, 32, 5, 5]
000000 29 03 9d bc e6 5c 10 3d 90 d8 03 bd f5 69 7b bc
       -0.019166546 0.035244845 -0.032188952 -0.015345086
000010 d4 f6 aa 3c a5 6b 07 bc 03 1a 66 bc 7b a2 de 3c
       0.02086965 -0.008265411 -0.014044288 0.027177086
000020 84 ac bb ba fb c9 34 3c 95 d2 5b 3c 93 5f 8e 3c
       -0.0014318381 0.011034484 0.013416906 0.017379558
000030 d6 19 3a 3c 15 32 63 3b 2b 90 a7 3c d9 52 02 bd
       0.011358699 0.0034667302 0.020454487 -0.03181729
000040 dd 4d 01 3c 93 03 03 bd 38 b2 97 bc e0 78 b3 bc
       0.007892099 -0.03198583 -0.018517599 -0.021908224
000050 74 e9 ad 3c 2c 4d ae 3c cf fb 43 bc 58 6b bb 3c
       0.021229483 0.021277033 -0.011961891 0.022878334
000060 88 ad 3a bc 73 e9 0f bc d9 d2 86 3c 34 43 c1 3b
       -0.011393912 -0.008783686 0.016457962 0.005897904
000070 14 c2 34 3c 22 ef a5 3c 4e e2 91 3c 3b 39 9a bc
       0.0110326 0.020255629 0.017808106 -0.018826118
000080 ae 7f 9f 3c 8e 70 07 bd 8e 06 a9 3a 12 61 8a 3c
       0.019470062 -0.033066325 0.001289563 0.01689199
000090 ac e3 c1 bc ae 10 8a bc 4a 3f 77 3c 0e 3f 67 3b
       -0.023668133 -0.016853657 0.015090773 0.0035285386
0000a0 a3 af f7 3c e9 4e 69 bb 57 14 1e bc 70 38 c3 bc
       0.030235117 -0.0035600013 -0.009648404 -0.023830622
0000b0 20 91 e1 3c fa 41 1f bc 8a 22 e9 bc 30 eb 54 3c
       0.027535021 -0.00972032 -0.028458852 0.012995526
0000c0 f0 f5 ff 3c 0a 85 e9 bb 65 8a 86 3b 10 da ac bc
       0.031245202 -0.007126455 0.0041058534 -0.021100074
0000d0 47 74 93 bc 1a ef 17 bc 24 89 46 ba 3c 65 48 3b
       -0.017999781 -0.009273315 -0.0007573536 0.0030577919
0000e0 f0 2c 08 bd 64 05 63 ba c8 1e 1d 3b 35 ed db bc
       -0.03324598 -0.0008660166 0.0023974646 -0.026846508
0000f0 d5 f5 50 3b 20 0b dd bc 66 61 53 3c 0b ac 04 bd
       0.0031884809 -0.026982844 0.01290164 -0.032390635
000100 36 c8 b7 bc 9c eb ec bc 6f ef 84 3c e5 c1 1b bb
       -0.022434335 -0.028920941 0.016227452 -0.0023766693
000110 38 e7 9f bc bd d1 c2 bc f4 9a 6d bb 3a 43 7d bc
       -0.019519433 -0.023781652 -0.003625569 -0.015457923
000120 b3 cb d9 3c 1c b7 9f bc 18 f7 bf 3c 9f da 0b 3c
       0.02658639 -0.019496493 0.023433253 0.00853601
000130 f1 3a 75 3c 8d cd 7d bc 64 d7 fc 3c ee 2b 18 bb
       0.014967666 -0.015490902 0.030864425 -0.0023219544
000140 2f 97 35 3a f0 8a 19 3b db d0 4c bc f7 e0 07 bd
       0.000692713 0.002342876 -0.012500967 -0.033173528
000150 fc 30 70 3c 18 77 c4 3c 86 2e ca 3a 8d 8c 34 3c
       0.014660116 0.02398257 0.0015425242 0.011019838
000160 b7 aa aa bc 98 f1 0f 3d 19 85 f7 3c 32 32 ef bc
       -0.020833356 0.03514251 0.030214833 -0.02919874
000170 b8 e5 bb bb 71 9b c0 bb 0e f3 7e bc 7c d7 c1 3b
       -0.0057341717 -0.005877905 -0.015560878 0.0059155803
000180 7f 19 9a bc 36 3d 13 3c 40 2d 32 3c 57 fd eb 3c
       -0.018810986 0.008986762 0.010875046 0.028807325
000190 ec 41 01 bd 5b 58 aa bc 48 03 c0 3c 1a 65 49 3c
       -0.03155701 -0.020794084 0.023439065 0.012292171
0001a0 95 69 c1 3c 9d 9e 0a bc 2f 8f 09 3d c5 cc 0d 3d
       0.023609916 -0.008460668 0.033583816 0.03461911
0001b0 0f 51 fe bb 90 3f 8b 3c eb 0e ef 3c 5f 8f 47 3c
       -0.007761128 0.016998082 0.029181918 0.012180178
0001c0 17 c6 89 3c 56 7d d8 b9 f9 b9 06 bd 08 be 34 3b
       0.01681809 -0.00041292113 -0.0328922 0.0027579088
0001d0 ff 3b c3 bc 1c 60 34 bc e6 2c fe bc 34 65 e3 3c
       -0.02383232 -0.011009242 -0.031027269 0.027758218
0001e0 af 35 04 bc 89 14 b3 3c 4b e1 81 ba b6 94 0b 3d
       -0.00806944 0.021860378 -0.0009909061 0.03407737
0001f0 bd bc 48 bc af ff cb bc 46 4d b1 bc e4 66 7c bc
       -0.01225203 -0.024902193 -0.021643292 -0.01540539
000200 7b ca ae bc 66 32 0a 3d 3e e6 59 39 4b 63 06 3a
       -0.021336785 0.03373947 0.00020780505 0.000512649
000210 df 72 09 bc 80 37 20 bc 69 d3 40 bb ae bc a5 bc
       -0.008389204 -0.009778857 -0.0029422885 -0.020231571
000220 28 49 f2 bc 27 e3 a7 3c 4a c5 bc bc 19 27 9d 3c
       -0.0295759 0.020494057 -0.023043294 0.019183682
000230 cd e3 c7 bc e0 49 cc 3c 5f f6 d1 bb f5 aa 9d 3c
       -0.024400616 0.02493757 -0.0064075436 0.019246558
000240 bc db 58 3c db e2 9a 3c 81 ee 30 3b 3e 94 d1 3c
       0.0132359825 0.018907001 0.0026997628 0.025583383
000250 16 a2 f0 3b 78 4c 0f bd 3f c9 d4 3b 3f 46 c7 3c
       0.007343541 -0.034985036 0.006493717 0.024325488
000260 e6 b6 b0 bc 8b 84 88 3c ca f4 db 3b ee 6a a5 3c
       -0.021571588 0.016664764 0.0067125307 0.02019259
000270 43 38 95 bc 40 e3 92 bc c8 0f 48 3c 99 a9 c6 bc
       -0.018215304 -0.017930627 0.012210794 -0.024250792
000280 9b 6b bf bc de 38 3b bc bf 90 c3 bc 44 d7 28 3c
       -0.02336674 -0.011427132 -0.023872731 0.01030523
000290 76 6f 80 3c 43 23 ca 3c 70 1e 0a 3d 9d 0a 8e 3b
       0.015678149 0.024675017 0.033720434 0.0043347613
0002a0 b4 69 fb 3c 04 1a df 3c 3f 86 9f ba 7f b3 0f 3d
       0.030690052 0.027234085 -0.0012170746 0.03508329
0002b0 d1 db 60 3c 48 bf 62 3c 23 a3 e4 3c 91 b8 cc bc
       0.013724283 0.01383955 0.02790982 -0.024990352
0002c0 dc 88 db 3c a6 72 81 bc dd 20 c4 3c 78 c5 43 3b
       0.026798658 -0.015801739 0.023941452 0.002987234
0002d0 b7 f7 98 ba 36 81 bc 3a 8d d2 43 3c a5 31 be bb
       -0.0011670504 0.001438177 0.011952055 -0.005804258
0002e0 0b d7 15 3c fa 0f 3f 3c 2a c8 cf 3c 4b e1 a2 bc
       0.0091455085 0.011661524 0.025364 -0.019882819
0002f0 26 58 0a bd 20 e0 19 3c fd 38 91 3b 24 e1 30 3b
       -0.03377547 0.0093918145 0.0044318424 0.0026989663
000300 2e dd 3d bb de 89 70 bc af 98 d5 bc 54 78 c8 3b
       -0.0028970945 -0.014681308 -0.026073782 0.00611786
000310 49 91 8a ba 4b 1a a4 3c 8b 33 c0 bc 0d 62 60 bc
       -0.0010571863 0.020032069 -0.023462078 -0.013695252
000320 fa 23 88 3c eb 13 f4 bc 0c 59 6a bc c6 91 cb 3c
       0.016618717 -0.029794654 -0.014303457 0.024849784
000330 23 a2 dc 3b 4b 4d 50 bc d7 cd 82 3c fb 3f db bc
       0.0067331954 -0.012713741 0.015967293 -0.026763907
000340 95 cd fa 3a 78 21 d2 bc 2c 6a 82 3c cc df 84 38
       0.0019134755 -0.025650725 0.015919767 6.335936e-05
000350 e0 0b 67 bc 3f 37 87 bb d5 b2 3c bc dd a4 1f 3b
       -0.014101952 -0.004126459 -0.011517246 0.002435974
000360 d7 aa 5f bc 49 c5 95 bc e9 06 05 bd 25 e5 a6 3c
       -0.013651571 -0.01828255 -0.032477293 0.020372937
000370 2a d3 68 bc d3 57 a2 3c c2 fd 01 3d 42 b9 5c bc
       -0.014210502 0.019817268 0.031736143 -0.013471903
000380 94 17 0e bd 4b a4 9d 3c a0 4f 66 bb 2c 45 2e bc
       -0.034690455 0.01924338 -0.0035142675 -0.010636609
000390 d9 44 a1 bc 48 08 2d bb 6e 9b a6 3c 4b 81 a3 bb
       -0.01968615 -0.002640264 0.020337787 -0.004989778
0003a0 15 24 2a 3b 03 8d 02 3d 69 80 cd 3c 19 7b d8 bc
       0.0025961448 0.03187276 0.025085645 -0.026425885
0003b0 40 e1 40 bc 9f a2 00 bd 76 f9 55 3c b2 29 b7 bc
       -0.011772454 -0.031405088 0.013059964 -0.022358749
0003c0 dc 29 f9 3c aa 98 04 3d d8 8e 8e bb 80 07 d4 3b
       0.030415468 0.032372154 -0.0043505244 0.0064706206
0003d0 d0 88 fe 3b 26 ec 0a 3c cf f8 a7 bc 98 18 5f bb
       0.007767774 0.008479154 -0.020504383 -0.0034041759
0003e0 6c c8 a0 3c c7 9d 01 bd 07 d7 d2 3c d2 7f e1 3c
       0.019626819 -0.03164461 0.025737299 0.02752677
0003f0 cc a1 78 3c 69 06 36 3c c6 dc 27 bc 58 4c 4a bc
       0.015175294 0.011109927 -0.010245508 -0.012347303

conv3.bias f4 [64]
000000 a4 29 a0 3c 72 5b a4 bc 17 ce fd 3c a3 95 c8 bb
       0.019551106 -0.020063136 0.03098206 -0.0061213537
000010 77 ec 64 3c 24 5b ca 3b d8 ae ff bc bc 3e 9d bc
       0.013972393 0.0061754156 -0.031211302 -0.019194953
000020 86 65 0b 3c 1f 4d 80 bc b5 b8 7f 3c 9e 6c 2f 3c
       0.008508092 -0.015661774 0.015608002 0.010707049
000030 a4 5b 04 3c 98 bb 0f 3d fe 99 01 3d c1 32 f7 3c
       0.008078489 0.035091013 0.031641 0.030175569
000040 07 61 d5 bc 19 99 0e bd 22 0c a7 bc c7 31 d2 bc
       -0.026047243 -0.034813974 -0.020391528 -0.025658501
000050 e9 1b b2 3c 94 32 1f 3c ec 2f 0f 3b 4b 87 08 bd
       0.021741824 0.009716649 0.0021848632 -0.03333215
000060 f7 2f 5d bc b3 c4 c4 bc 75 83 fc bb 23 9b 8f 3c
       -0.013500205 -0.024019575 -0.0077061006 0.01753003
000070 fa 28 ba 3c 2d 14 a6 bc 9f 98 8c 3b f8 7f 7b bc
       0.022724617 -0.020273292 0.004290655 -0.015350334
000080 58 4c cc bb 12 96 d1 3c 4f 68 36 3c 8a 28 40 3c
       -0.006234687 0.025584254 0.011133268 0.011728415
000090 65 15 9d 3c 48 90 9d bc b2 92 12 bb c7 52 cb 3c
       0.01917524 -0.019233838 -0.002236527 0.024819745
0000a0 e1 ab c5 3c 46 f2 d5 3c d0 74 8d 3b 9d 79 d0 bc
       0.02412981 0.026116502 0.0043169037 -0.025448615
0000b0 ef 89 e8 bc 3b 26 96 bc 04 6b 7f ba c4 59 c5 bc
       -0.028386084 -0.018328777 -0.00097434246 -0.024090655
0000c0 59 cf d0 3c d6 3d 1a bb b1 71 9b 3c 89 71 6d bc
       0.025489496 -0.0023535392 0.01897511 -0.014492401
0000d0 3b 3c 0e bd 0e d0 83 3b 90 1a 06 3d 5c 28 01 bd
       -0.03472541 0.004022605 0.032740176 -0.03153263
0000e0 10 91 21 bc 04 cb 92 3c 73 22 9c 3b f0 2e b5 3c
       -0.009861246 0.017919071 0.004764849 0.022117108
0000f0 10 71 91 bb 0c e8 0d bd 59 44 5d ba 15 6f 91 bc
       -0.004438527 -0.034645125 -0.00084406656 -0.017753163

normalization1.weight f4 [32]
000000 0d 2a 96 3f de 5c ae 3f 68 3f 9d 3f d0 5e 9d 3f
       1.1731583 1.3622091 1.2284975 1.229456
000010 e0 e2 9e 3f 7e e5 a9 3f 20 31 b8 3f d8 d9 8b 3f
       1.2412987 1.327316 1.4389992 1.0925856
000020 4d 21 c1 3f 7c dd a1 3f 89 9f 9e 3f 4f 8d ba 3f
       1.5088288 1.2645717 1.2392436 1.4574374
000030 b2 06 82 3f b7 8b 96 3f 13 07 ba 3f 10 4e af 3f
       1.0158293 1.1761388 1.4533409 1.3695698
000040 89 8c a3 3f d4 d3 ae 3f 06 fc 9a 3f a2 a4 c0 3f
       1.2777263 1.3658395 1.2108161 1.5050242
000050 84 a4 96 3f 4c cc b2 3f 46 e6 b6 3f cf b6 9c 3f
       1.1768956 1.3968596 1.4289024 1.2243289
000060 03 c6 99 3f 2b 4c a4 3f 92 bd a3 3f 53 d8 93 3f
       1.2013553 1.2835745 1.2792227 1.1550392
000070 4b 95 a8 3f c4 ca a2 3f 55 e3 a4 3f 70 c9 9e 3f
       1.3170561 1.2718129 1.2881876 1.2405224

normalization1.bias f4 [32]
000000 ae 8e 88 be 53 d9 56 be ac 82 a5 be 6a 8f 87 be
       -0.26671356 -0.2098134 -0.32326257 -0.26476604
000010 18 2a a2 be aa e8 af be 72 6c e1 be 10 c8 9a be
       -0.3167274 -0.34357196 -0.4402805 -0.3023076
000020 77 30 ef be 35 fe c8 be 26 e4 da be 52 dc 68 be
       -0.46716663 -0.39256445 -0.42752188 -0.22740296
000030 67 b4 53 be ce 35 df bd 38 6c b2 bd 59 c9 8d be
       -0.20674287 -0.10898934 -0.08712047 -0.2769268
000040 a8 39 8e be 5b 9e b7 be 62 6f e6 be ea 84 c4 be
       -0.27778363 -0.35863003 -0.45006853 -0.38382655
000050 7a 07 e0 be b9 08 9f be 30 e5 8b be 5c e0 99 be
       -0.43755704 -0.31061342 -0.27323294 -0.30053985
000060 fc b6 07 bf d5 69 c5 be 50 4a a8 be 05 7a 9d be
       -0.53013587 -0.38557306 -0.32869196 -0.30757156
000070 19 0d 0a be 76 2e 9e be 61 80 58 be c2 67 af be
       -0.13481559 -0.30894822 -0.21142723 -0.34258848

normalization1.running_mean f4 [32]
000000 a3 50 d5 bd 6b 40 93 bd ea 43 00 be 54 54 fe bd
       -0.10415771 -0.07190021 -0.12525907 -0.12418428
000010 c4 1a 80 be ea 94 76 bc ff 73 28 be 28 91 4d be
       -0.2502042 -0.015050152 -0.16450499 -0.20074904
000020 89 dd 42 be 99 7f f2 3b e3 0c 84 be de 90 1b be
       -0.19029821 0.0074004647 -0.25791082 -0.15191981
000030 3c 0e 5a 3e 32 09 d1 bd a5 4c 19 bc 6b 64 b3 3d
       0.21294492 -0.10206832 -0.009356652 0.087593876
000040 81 e9 85 be c1 3a 79 3d 37 fa ff bd 24 1b c8 bd
       -0.26154712 0.060847048 -0.124988966 -0.09770802
000050 8d 4a fa bd be 1a 5c be c8 10 91 3b b9 3f 0b be
       -0.12221251 -0.21494576 0.0044270493 -0.13598527
000060 b4 23 9b be 25 6d e1 3c 60 4d 12 3e 34 56 a6 3b
       -0.30300677 0.027517864 0.14287329 0.005076194
000070 55 08 88 3c 7a 82 94 bc 2a e3 d5 3c 76 77 d1 3c
       0.016605536 -0.018128622 0.026109297 0.025569659

normalization1.running_var f4 [32]
000000 bf 94 80 3c ad 94 d8 3c 32 be b4 3c ba 4e 84 3c
       0.015695928 0.026438082 0.022063348 0.016150821
000010 e7 98 d0 3c 48 b0 2a 3d 29 4c 12 3d 76 1c b8 3c
       0.025463535 0.04167202 0.035717163 0.022474509
000020 f5 a8 1e 3d 0e 7c e9 3c ec e9 e7 3c 6f c5 82 3c
       0.03873535 0.028501537 0.028309785 0.015963284
000030 49 e7 2d 3d 07 ef 13 3d b6 86 ba 3c 21 95 8f 3c
       0.0424569 0.036116626 0.022769313 0.017527165
000040 ab 20 af 3c 68 d4 92 3c 8d 62 c2 3c 5d 35 d7 3c
       0.021377882 0.017923549 0.023728633 0.026270563
000050 bd a3 be 3c 91 02 be 3c e5 8d c6 3c bb 0a 0c 3d
       0.023271436 0.023194583 0.024237582 0.03418992
000060 05 76 d8 3c 9b 49 b2 3c 8c 15 00 3d 84 12 6f 3c
       0.026423464 0.021763613 0.03127055 0.014591817
000070 c8 98 ca 3c 83 02 7a 3c 00 f5 c4 3c b9 f4 e7 3c
       0.024731055 0.015259388 0.024042606 0.028314935

normalization2.weight f4 [32]
000000 00 00 80 3f 00 00 80 3f 00 00 80 3f 00 00 80 3f
       1.0 1.0 1.0 1.0
000010 00 00 80 3f 00 00 80 3f 00 00 80 3f 00 00 80 3f
       1.0 1.0 1.0 1.0
000020 00 00 80 3f 00 00 80 3f 00 00 80 3f 00 00 80 3f
       1.0 1.0 1.0 1.0
000030 00 00 80 3f 00 00 80 3f 00 00 80 3f 00 00 80 3f
       1.0 1.0 1.0 1.0
000040 00 00 80 3f 00 00 80 3f 00 00 80 3f 00 00 80 3f
       1.0 1.0 1.0 1.0
000050 00 00 80 3f 00 00 80 3f 00 00 80 3f 00 00 80 3f
       1.0 1.0 1.0 1.0
000060 00 00 80 3f 00 00 80 3f 00 00 80 3f 00 00 80 3f
       1.0 1.0 1.0 1.0
000070 00 00 80 3f 00 00 80 3f 00 00 80 3f 00 00 80 3f
       1.0 1.0 1.0 1.0

normalization2.bias f4 [32]
000000 00 00 00 00 00 00 00 00 00 00 00 00 00 00 00 00
       0.0 0.0 0.0 0.0
000010 00 00 00 00 00 00 00 00 00 00 00 00 00 00 00 00
       0.0 0.0 0.0 0.0
000020 00 00 00 00 00 00 00 00 00 00 00 00 00 00 00 00
       0.0 0.0 0.0 0.0
000030 00 00 00 00 00 00 00 00 00 00 00 00 00 00 00 00
       0.0 0.0 0.0 0.0
000040 00 00 00 00 00 00 00 00 00 00 00 00 00 00 00 00
       0.0 0.0 0.0 0.0
000050 00 00 00 00 00 00 00 00 00 00 00 00 00 00 00 00
       0.0 0.0 0.0 0.0
000060 00 00 00 00 00 00 00 00 00 00 00 00 00 00 00 00
       0.0 0.0 0.0 0.0
000070 00 00 00 00 00 00 00 00 00 00 00 00 00 00 00 00
       0.0 0.0 0.0 0.0

normalization2.running_mean f4 [32]
000000 00 00 00 00 00 00 00 00 00 00 00 00 00 00 00 00
       0.0 0.0 0.0 0.0
000010 00 00 00 00 00 00 00 00 00 00 00 00 00 00 00 00
       0.0 0.0 0.0 0.0
000020 00 00 00 00 00 00 00 00 00 00 00 00 00 00 00 00
       0.0 0.0 0.0 0.0
000030 00 00 00 00 00 00 00 00 00 00 00 00 00 00 00 00
       0.0 0.0 0.0 0.0
000040 00 00 00 00 00 00 00 00 00 00 00 00 00 00 00 00
       0.0 0.0 0.0 0.0
000050 00 00 00 00 00 00 00 00 00 00 00 00 00 00 00 00
       0.0 0.0 0.0 0.0
000060 00 00 00 00 00 00 00 00 00 00 00 00 00 00 00 00
       0.0 0.0 0.0 0.0
000070 00 00 00 00 00 00 00 00 00 00 00 00 00 00 00 00
       0.0 0.0 0.0 0.0

normalization2.running_var f4 [32]
000000 00 00 80 3f 00 00 80 3f 00 00 80 3f 00 00 80 3f
       1.0 1.0 1.0 1.0
000010 00 00 80 3f 00 00 80 3f 00 00 80 3f 00 00 80 3f
       1.0 1.0 1.0 1.0
000020 00 00 80 3f 00 00 80 3f 00 00 80 3f 00 00 80 3f
       1.0 1.0 1.0 1.0
000030 00 00 80 3f 00 00 80 3f 00 00 80 3f 00 00 80 3f
       1.0 1.0 1.0 1.0
000040 00 00 80 3f 00 00 80 3f 00 00 80 3f 00 00 80 3f
       1.0 1.0 1.0 1.0
000050 00 00 80 3f 00 00 80 3f 00 00 80 3f 00 00 80 3f
       1.0 1.0 1.0 1.0
000060 00 00 80 3f 00 00 80 3f 00 00 80 3f 00 00 80 3f
       1.0 1.0 1.0 1.0
000070 00 00 80 3f 00 00 80 3f 00 00 80 3f 00 00 80 3f
       1.0 1.0 1.0 1.0

normalization3.weight f4 [64]
000000 00 00 80 3f 00 00 80 3f 00 00 80 3f 00 00 80 3f
       1.0 1.0 1.0 1.0
000010 00 00 80 3f 00 00 80 3f 00 00 80 3f 00 00 80 3f
       1.0 1.0 1.0 1.0
000020 00 00 80 3f 00 00 80 3f 00 00 80 3f 00 00 80 3f
       1.0 1.0 1.0 1.0
000030 00 00 80 3f 00 00 80 3f 00 00 80 3f 00 00 80 3f
       1.0 1.0 1.0 1.0
000040 00 00 80 3f 00 00 80 3f 00 00 80 3f 00 00 80 3f
       1.0 1.0 1.0 1.0
000050 00 00 80 3f 00 00 80 3f 00 00 80 3f 00 00 80 3f
       1.0 1.0 1.0 1.0
000060 00 00 80 3f 00 00 80 3f 00 00 80 3f 00 00 80 3f
       1.0 1.0 1.0 1.0
000070 00 00 80 3f 00 00 80 3f 00 00 80 3f 00 00 80 3f
       1.0 1.0 1.0 1.0
000080 00 00 80 3f 00 00 80 3f 00 00 80 3f 00 00 80 3f
       1.0 1.0 1.0 1.0
000090 00 00 80 3f 00 00 80 3f 00 00 80 3f 00 00 80 3f
       1.0 1.0 1.0 1.0
0000a0 00 00 80 3f 00 00 80 3f 00 00 80 3f 00 00 80 3f
       1.0 1.0 1.0 1.0
0000b0 00 00 80 3f 00 00 80 3f 00 00 80 3f 00 00 80 3f
       1.0 1.0 1.0 1.0
0000c0 00 00 80 3f 00 00 80 3f 00 00 80 3f 00 00 80 3f
       1.0 1.0 1.0 1.0
0000d0 00 00 80 3f 00 00 80 3f 00 00 80 3f 00 00 80 3f
       1.0 1.0 1.0 1.0
0000e0 00 00 80 3f 00 00 80 3f 00 00 80 3f 00 00 80 3f
       1.0 1.0 1.0 1.0
0000f0 00 00 80 3f 00 00 80 3f 00 00 80 3f 00 00 80 3f
       1.0 1.0 1.0 1.0

normalization3.bias f4 [64]
000000 00 00 00 00 00 00 00 00 00 00 00 00 00 00 00 00
       0.0 0.0 0.0 0.0
000010 00 00 00 00 00 00 00 00 00 00 00 00 00 00 00 00
       0.0 0.0 0.0 0.0
000020 00 00 00 00 00 00 00 00 00 00 00 00 00 00 00 00
       0.0 0.0 0.0 0.0
000030 00 00 00 00 00 00 00 00 00 00 00 00 00 00 00 00
       0.0 0.0 0.0 0.0
000040 00 00 00 00 00 00 00 00 00 00 00 00 00 00 00 00
       0.0 0.0 0.0 0.0
000050 00 00 00 00 00 00 00 00 00 00 00 00 00 00 00 00
       0.0 0.0 0.0 0.0
000060 00 00 00 00 00 00 00 00 00 00 00 00 00 00 00 00
       0.0 0.0 0.0 0.0
000070 00 00 00 00 00 00 00 00 00 00 00 00 00 00 00 00
       0.0 0.0 0.0 0.0
000080 00 00 00 00 00 00 00 00 00 00 00 00 00 00 00 00
       0.0 0.0 0.0 0.0
000090 00 00 00 00 00 00 00 00 00 00 00 00 00 00 00 00
       0.0 0.0 0.0 0.0
0000a0 00 00 00 00 00 00 00 00 00 00 00 00 00 00 00 00
       0.0 0.0 0.0 0.0
0000b0 00 00 00 00 00 00 00 00 00 00 00 00 00 00 00 00
       0.0 0.0 0.0 0.0
0000c0 00 00 00 00 00 00 00 00 00 00 00 00 00 00 00 00
       0.0 0.0 0.0 0.0
0000d0 00 00 00 00 00 00 00 00 00 00 00 00 00 00 00 00
       0.0 0.0 0.0 0.0
0000e0 00 00 00 00 00 00 00 00 00 00 00 00 00 00 00 00
       0.0 0.0 0.0 0.0
0000f0 00 00 00 00 00 00 00 00 00 00 00 00 00 00 00 00
       0.0 0.0 0.0 0.0

normalization3.running_mean f4 [64]
000000 00 00 00 00 00 00 00 00 00 00 00 00 00 00 00 00
       0.0 0.0 0.0 0.0
000010 00 00 00 00 00 00 00 00 00 00 00 00 00 00 00 00
       0.0 0.0 0.0 0.0
000020 00 00 00 00 00 00 00 00 00 00 00 00 00 00 00 00
       0.0 0.0 0.0 0.0
000030 00 00 00 00 00 00 00 00 00 00 00 00 00 00 00 00
       0.0 0.0 0.0 0.0
000040 00 00 00 00 00 00 00 00 00 00 00 00 00 00 00 00
       0.0 0.0 0.0 0.0
000050 00 00 00 00 00 00 00 00 00 00 00 00 00 00 00 00
       0.0 0.0 0.0 0.0
000060 00 00 00 00 00 00 00 00 00 00 00 00 00 00 00 00
       0.0 0.0 0.0 0.0
000070 00 00 00 00 00 00 00 00 00 00 00 00 00 00 00 00
       0.0 0.0 0.0 0.0
000080 00 00 00 00 00 00 00 00 00 00 00 00 00 00 00 00
       0.0 0.0 0.0 0.0
000090 00 00 00 00 00 00 00 00 00 00 00 00 00 00 00 00
       0.0 0.0 0.0 0.0
0000a0 00 00 00 00 00 00 00 00 00 00 00 00 00 00 00 00
       0.0 0.0 0.0 0.0
0000b0 00 00 00 00 00 00 00 00 00 00 00 00 00 00 00 00
       0.0 0.0 0.0 0.0
0000c0 00 00 00 00 00 00 00 00 00 00 00 00 00 00 00 00
       0.0 0.0 0.0 0.0
0000d0 00 00 00 00 00 00 00 00 00 00 00 00 00 00 00 00
       0.0 0.0 0.0 0.0
0000e0 00 00 00 00 00 00 00 00 00 00 00 00 00 00 00 00
       0.0 0.0 0.0 0.0
0000f0 00 00 00 00 00 00 00 00 00 00 00 00 00 00 00 00
       0.0 0.0 0.0 0.0

normalization3.running_var f4 [64]
000000 00 00 80 3f 00 00 80 3f 00 00 80 3f 00 00 80 3f
       1.0 1.0 1.0 1.0
000010 00 00 80 3f 00 00 80 3f 00 00 80 3f 00 00 80 3f
       1.0 1.0 1.0 1.0
000020 00 00 80 3f 00 00 80 3f 00 00 80 3f 00 00 80 3f
       1.0 1.0 1.0 1.0
000030 00 00 80 3f 00 00 80 3f 00 00 80 3f 00 00 80 3f
       1.0 1.0 1.0 1.0
000040 00 00 80 3f 00 00 80 3f 00 00 80 3f 00 00 80 3f
       1.0 1.0 1.0 1.0
000050 00 00 80 3f 00 00 80 3f 00 00 80 3f 00 00 80 3f
       1.0 1.0 1.0 1.0
000060 00 00 80 3f 00 00 80 3f 00 00 80 3f 00 00 80 3f
       1.0 1.0 1.0 1.0
000070 00 00 80 3f 00 00 80 3f 00 00 80 3f 00 00 80 3f
       1.0 1.0 1.0 1.0
000080 00 00 80 3f 00 00 80 3f 00 00 80 3f 00 00 80 3f
       1.0 1.0 1.0 1.0
000090 00 00 80 3f 00 00 80 3f 00 00 80 3f 00 00 80 3f
       1.0 1.0 1.0 1.0
0000a0 00 00 80 3f 00 00 80 3f 00 00 80 3f 00 00 80 3f
       1.0 1.0 1.0 1.0
0000b0 00 00 80 3f 00 00 80 3f 00 00 80 3f 00 00 80 3f
       1.0 1.0 1.0 1.0
0000c0 00 00 80 3f 00 00 80 3f 00 00 80 3f 00 00 80 3f
       1.0 1.0 1.0 1.0
0000d0 00 00 80 3f 00 00 80 3f 00 00 80 3f 00 00 80 3f
       1.0 1.0 1.0 1.0
0000e0 00 00 80 3f 00 00 80 3f 00 00 80 3f 00 00 80 3f
       1.0 1.0 1.0 1.0
0000f0 00 00 80 3f 00 00 80 3f 00 00 80 3f 00 00 80 3f
       1.0 1.0 1.0 1.0

fc1.weight f4 [128, 512]
000000 ba 6f 96 3a c4 39 05 bd c1 a5 84 bc 5a 65 96 3c
       0.0011477389 -0.032525793 -0.016192319 0.018358875
000010 be b3 90 bc 45 bc a5 bc 1e a2 19 bd ab b5 23 3c
       -0.017663833 -0.020231375 -0.037508123 0.0099920435
000020 f0 5f 1e bd a7 0c 7f bb 3c 04 3b ba 3d 5f 53 3c
       -0.038665712 -0.0038917453 -0.0007134115 0.012901125
000030 96 95 ff 3b 87 cc 3c bd ff 96 f5 3b 15 f2 bd 3c
       0.0077998145 -0.04609349 0.007494807 0.023186723
000040 d8 02 9f 3c 41 c1 ef bc 37 e9 16 bd 1e c0 ec bb
       0.019410536 -0.029266955 -0.036843505 -0.0072250506
000050 44 46 52 3b dc b1 30 bd 94 09 4c bb 46 0c 66 3c
       0.0032085339 -0.04313837 -0.0031133639 0.014041012
000060 29 7b 07 3d d3 58 a4 bc b8 a7 a6 bc 10 fb 36 bc
       0.03307644 -0.020061886 -0.020343646 -0.011168256
000070 ab 9d 97 bc 9f 7b 1b bd b4 ce 48 bd 9e a2 97 bb
       -0.0185078 -0.03795969 -0.049025252 -0.00462754
000080 d8 79 d2 bc d7 da 27 bc 2b 17 02 3d e7 2b 0e 3d
       -0.025692865 -0.010245047 0.031760376 0.034709837
000090 66 8b 47 3b aa 0f d1 3c 81 e0 0c bd 82 70 14 bd
       0.0030448078 0.025520165 -0.03439379 -0.03624011
0000a0 2d 37 18 bd eb d7 1c bd 24 07 08 3d 14 85 54 3b
       -0.037161995 -0.038291853 0.033209935 0.0032427954
0000b0 6b 3d 43 3a 05 76 1b bd 2c b1 aa bc 4a 4f e4 bb
       0.00074478117 -0.03795435 -0.020836435 -0.00696746
0000c0 85 36 c5 bc c3 81 27 bd b2 21 e7 bc 3d f8 07 bb
       -0.024073849 -0.040895235 -0.02821431 -0.0020747327
0000d0 5a 8b a9 3c 17 66 df bc bf 04 c3 39 cd d7 a8 bc
       0.02069633 -0.02727036 0.00037196834 -0.020610714
0000e0 1b ab 99 bb 90 1e ab 3c 13 66 33 bb 67 d4 83 bc
       -0.004689587 0.020888597 -0.0027374073 -0.016092492
0000f0 cd 02 10 bd c2 b9 71 bc 94 cc 11 bd b8 6a fe ba
       -0.03515892 -0.014753761 -0.03559549 -0.0019410467
000100 b3 0e ba bc d8 39 53 bd f7 bc a7 bc da bb 00 3b
       -0.022712087 -0.051568836 -0.020475848 0.0019643218
000110 4b d4 eb bc 4d aa d5 bc b9 9b a6 3c 6e 53 e7 ba
       -0.028787753 -0.026082182 0.020337926 -0.0017648765
000120 e6 65 1f bc d9 52 5c 3c e2 cc a5 bb f8 bf 09 bd
       -0.009728884 0.013447487 -0.0050598243 -0.03363034
000130 f3 34 0f 3c 94 60 e4 3c e2 64 0a 3d f4 04 d3 3c
       0.008740651 0.027878083 0.033787616 0.025759198
000140 c6 be 45 bd 92 54 3d bd 1f 85 82 bc f0 ae 15 3c
       -0.04827764 -0.04622323 -0.015932618 0.009135947
000150 e8 d8 03 bc 07 0f 80 bc af 43 65 bc 87 38 e4 3a
       -0.00804732 -0.015632166 -0.013993188 0.0017411866
000160 e2 a1 dd bc 44 48 23 3c a1 45 62 bc b6 83 62 bc
       -0.02705473 0.00996596 -0.013810546 -0.013825348
000170 5f 1b 59 3c 4c 51 58 bb b9 e0 11 bb 61 c2 00 3c
       0.013251155 -0.003300744 -0.002225919 0.007858844
000180 37 52 f6 3c aa 6e 0c bd 81 9a ef bc 56 69 0d bd
       0.0300685 -0.034285225 -0.029248478 -0.034524284
000190 af ed 7a 3c fd 56 a0 3a 8e 0d 28 3b 1a a4 33 bc
       0.015315457 0.0012232956 0.0025642845 -0.010964418
0001a0 b3 d6 22 bd 48 29 ee 3c 28 15 6f bc 4d c9 09 bd
       -0.039755534 0.029072419 -0.014592446 -0.03363924
0001b0 9a 93 7d bc df 01 9f 3c c9 6d a6 3c b8 c5 ae 3c
       -0.0154770855 0.019410072 0.020316022 0.021334514
0001c0 53 54 97 bc 62 8f f5 bc 5b 73 44 bd 84 a0 8b 3c
       -0.018472826 -0.029975597 -0.047961574 0.017044313
0001d0 67 90 fe 3b d2 aa ce 3c ef bd 1c bc e2 06 3e bd
       0.007768679 0.025227938 -0.009566768 -0.046393283
0001e0 de 3e a0 bb b2 78 d7 3b 8a 05 81 3c e6 32 b7 3c
       -0.004890307 0.0065756673 0.015749712 0.022363137
0001f0 b8 5b ee 3c 1e a6 01 3d fd 05 f0 3c e2 66 83 3b
       0.02909647 0.031652562 0.02929973 0.0040100673
000200 65 c6 ef bc 3a f3 c8 bc 6e 8e df bc 1a e5 6b 3c
       -0.029269407 -0.024530042 -0.027289595 0.014397884
000210 c9 42 88 3c a6 45 96 bb 97 57 35 bd dd bd 1d bd
       0.016633408 -0.0045859395 -0.044272985 -0.038511146
000220 69 2c 74 3c 10 86 34 bc 64 a4 03 b8 96 98 33 bd
       0.014903166 -0.011018291 -3.1385935e-05 -0.04384669
000230 d3 c2 36 bc 14 dd 36 bd 9e df df bc a0 5d 68 3c
       -0.011154848 -0.04464443 -0.027328309 0.014182478
000240 19 5f e4 3c 1d 0e 0c 3d 9d 92 ef bc 26 71 4e bc
       0.027877377 0.034193147 -0.029244715 -0.012600219
000250 04 78 99 bc 87 97 7a 3c fb 7d 84 bc 90 5e 36 bb
       -0.018733986 0.015294916 -0.016173353 -0.002782736
000260 7a ca 2e 3b cb 1c a5 3c 3d 8f 74 3b 9b b5 07 bd
       0.0026670978 0.020155331 0.0037316822 -0.033132177
000270 19 87 2b bd cb 2b ca 3c fa f1 0f bd 1f ce 0c ba
       -0.041876886 0.024679085 -0.035142876 -0.00053712906
000280 08 58 07 3d 02 8c 3c bc 79 bc 90 bc f6 a0 00 3b
       0.033042938 -0.01150799 -0.017667996 0.001962719
000290 70 51 4b bc 4d e9 e5 3c 09 26 19 bc 6f ff 8a 3b
       -0.012409553 0.028065348 -0.009347447 0.004241876
0002a0 ce ea 0e 3b 61 02 75 3c ef 90 b7 3c 4b 3b 69 3c
       0.0021807435 0.01495418 0.022407977 0.014235328
0002b0 ba 58 b1 3c 6f 42 0c bd 0f d1 4f 38 82 9a 22 bd
       0.021648753 -0.034243044 4.9547347e-05 -0.03969813
0002c0 f9 c0 d4 3c 7d 28 0a 3d 38 79 40 bd 51 63 b0 bc
       0.025970923 0.03373002 -0.046990603 -0.021531733
0002d0 f9 db ef 3c e7 12 72 bc 5b e7 22 3c b2 c4 60 bc
       0.029279696 -0.0147750145 0.009942855 -0.013718771
0002e0 12 96 ee 3c 5e ee 91 3c fb f9 87 bc 3a f4 bd bb
       0.029124293 0.017813858 -0.016598692 -0.0057969363
0002f0 8a c6 11 3d 03 1e d0 3c 1c ac 36 bb bd 97 40 bc
       0.035589732 0.025404936 -0.0027873581 -0.011754927
000300 bc 82 b4 3c 37 41 4b bd c4 b6 27 bd 3e 04 ec bb
       0.022034995 -0.04962274 -0.040945783 -0.007202654
000310 08 0a b4 3c dd 6a 33 bb ad 57 94 ba 22 c5 a2 ba
       0.02197744 -0.0027376928 -0.0011317633 -0.0012418369
000320 0a 98 49 3c 0f aa b5 bc b8 18 2f bd b3 6c e4 3b
       0.012304315 -0.022175817 -0.042748183 0.006970966
000330 74 aa 53 bc ea 17 4a bc 89 2c 42 bd be 50 87 3b
       -0.012919057 -0.012334803 -0.047405753 0.0041294983
000340 9c 82 b6 bc d0 45 51 bd fd 42 08 3c 70 4c 4c bd
       -0.022279076 -0.05109197 0.0083167525 -0.049877584
000350 ac 22 d2 3b f3 ac bc bc 02 31 2c ba 43 3a 36 bd
       0.0064128246 -0.023031687 -0.0006568582 -0.044489156
000360 3f ec 09 3c 4a 34 ac 3c b5 37 fe 3c 5e 56 50 3c
       0.008418142 0.021021027 0.031032423 0.012715904
000370 c3 a2 45 3c 83 a7 0c bd 4a d2 e6 3c de 71 8e 3c
       0.012062731 -0.03433944 0.028176446 0.01738828
000380 a2 60 55 3c 6b 03 c2 bb 59 c1 a2 3b 82 87 3f bd
       0.013023527 -0.0059208176 0.0049668965 -0.04676009
000390 5b f4 91 bc 7a 63 92 bc bb 03 4a bd 7b 52 8c bc
       -0.017816713 -0.0178697 -0.049319964 -0.017129174
0003a0 3e d9 c1 bc 92 db d9 bc ba 88 32 3a 0a 3d cf bc
       -0.02366316 -0.026593957 0.0006810535 -0.02529766
0003b0 f6 0c df bc 12 09 04 bd bb 1f c1 3b da 54 fa 3c
       -0.02722786 -0.032235213 0.005893675 0.030558039
0003c0 28 76 79 bc d6 b5 0b 3d 0c ee ca 3a b7 32 07 bd
       -0.015225925 0.03410896 0.001548232 -0.03300735
0003d0 a3 1a 09 bc a4 21 a3 bc 41 cb 62 3c e5 44 8f bb
       -0.008368167 -0.019913502 0.013842405 -0.0043722265
0003e0 86 c0 11 3d 8f 95 c4 bc e9 b7 e0 3c ea 6e 15 bd
       0.035583995 -0.023997096 0.027431445 -0.03648273
0003f0 9d 71 9a bc 67 22 f9 3c f7 c7 76 ba 8c 4f 74 3b
       -0.018853003 0.030411912 -0.00094139524 0.003727886

fc1.bias f4 [128]
000000 72 6d 83 3c f0 e9 b2 bc b7 6d 3e bc a2 14 60 3d
       0.016043399 -0.021840066 -0.011622838 0.054707177
000010 af 17 10 3d 5e 10 a9 ba 75 11 35 3d 24 af 47 3d
       0.035178836 -0.0012898555 0.0442061 0.04875101
000020 75 ed 88 3a d7 75 a3 3d c5 cf ec 3d 7c 9e 10 3d
       0.0010446744 0.079814605 0.115630664 0.035307392
000030 2c 30 13 bd 7b 16 00 3d 1b 06 d0 bc d5 ff 03 bd
       -0.035934612 0.03127144 -0.025393536 -0.032226402
000040 70 31 64 3b 70 60 68 bc 0d 90 f5 3c 86 f6 24 3d
       0.0034819506 -0.014183149 0.029975915 0.040274166
000050 36 a5 9b 3d d5 6b 2b bd d3 d1 c3 bb 9d 8d 45 bb
       0.07599871 -0.041850884 -0.0059759407 -0.0030144223
000060 1c 8e 06 3d 18 5d 2e 3c c8 53 25 bd ae 14 46 bd
       0.03285037 0.0106423125 -0.040363103 -0.048359565
000070 ac 06 ac 3a 94 25 ba bd ed fc b9 bb b8 89 d8 bc
       0.0013124547 -0.09089199 -0.005675903 -0.026432857
000080 08 96 86 3a ac 21 b1 3c 61 12 a0 3c dc 17 cb bc
       0.0010268101 0.021622501 0.019540014 -0.02479165
000090 54 f0 b0 3c b1 a0 7c bd 1b 9f 4e 3d 75 d1 de 3c
       0.021598972 -0.061676685 0.050444704 0.027199486
0000a0 b9 7a 25 3c 41 76 4a bd 40 7d af bd 32 43 cb bc
       0.01010006 -0.049429182 -0.085688114 -0.024812315
0000b0 c0 08 be 3b 9a 7b a5 3b d2 df aa bb c3 4b f0 ba
       0.005799383 0.005050135 -0.0052146697 -0.0018333126
0000c0 11 9e 3e bc 2f 1f 12 bd bf 0b b7 bc e0 d3 80 bb
       -0.011634366 -0.03567427 -0.022344468 -0.0039315075
0000d0 4a 57 5b 3d 4c 1a f8 bc 45 48 79 3d 61 8f 00 3c
       0.053550042 -0.030285977 0.060859937 0.007846684
0000e0 dc 2c f3 bc e3 df b5 3c 5d 95 78 3c 9f 00 4b 3c
       -0.029684477 0.022201484 0.01517233 0.012390285
0000f0 b7 91 41 bd 40 ae 29 bd 98 9e 80 3d 6e 2e e8 3b
       -0.047258105 -0.041425943 0.06280249 0.007085613
000100 dd a1 b6 3c 21 f5 6c bc 0a 6b 4e 3d 91 3d 3d bd
       0.02229398 -0.01446274 0.05039505 -0.046201292
000110 be 4f 02 3e 50 e0 00 3d bf c9 72 bd 75 c9 06 bd
       0.12725732 0.03146392 -0.05927443 -0.03290697
000120 f5 8d 07 bd 39 ac db bd 9d ea 94 3d 92 2b 06 3d
       -0.033094365 -0.10726208 0.072713114 0.032756396
000130 29 85 e6 bc be 82 3a 3c f5 15 41 bd e3 85 a3 3a
       -0.028139668 0.01138371 -0.04714008 0.0012475814
000140 53 9b 0a 3d 51 5f ac 3c 0c 8f 87 bd 7d a8 30 3d
       0.033839535 0.021041544 -0.06619081 0.043129433
000150 6e dc 96 3d 39 3a 0f bd 3f fb e3 b7 ec c1 3b 3c
       0.073662624 -0.034967635 -2.7177504e-05 0.011459809
000160 94 c1 be 3c 25 da 85 3a b5 ec 54 bd 63 2b 40 3c
       0.023285665 0.0010212107 -0.051983554 0.011729094
000170 c1 e6 d9 3d 37 9e 94 bb 45 bd 20 bd 15 10 a5 bc
       0.10639716 -0.0045354622 -0.039243 -0.02014927
000180 a0 6b fc bc 6c 9f 53 bd c2 f8 c1 bc 8e ba 05 bd
       -0.030813038 -0.05166571 -0.023678187 -0.032648616
000190 35 de a2 3c 74 b6 dd 3c d1 20 43 bd d3 c3 8e 3c
       0.019881347 0.02706454 -0.047638718 0.01742736
0001a0 5a 2f 77 bc 82 e3 5d 3d e9 ae 33 3c 5c e1 1c 3d
       -0.015086973 0.054172046 0.010966995 0.038300857
0001b0 92 e2 40 3c d2 a4 32 bd d3 eb 40 bd 9f 50 45 3d
       0.011772769 -0.043614216 -0.0470999 0.04817259
0001c0 39 4a 32 bd c7 30 49 3d 43 c3 40 3c 1d 78 73 bd
       -0.043527815 0.049118783 0.011765304 -0.05944072
0001d0 cc 03 3d bd 46 bf 65 bc 43 b7 37 bc c3 d0 7a 3d
       -0.0461462 -0.014022654 -0.011213127 0.061234247
0001e0 d0 82 66 bc 94 a9 6c 3c 34 a5 6b bc 84 34 22 3d
       -0.014069274 0.014444727 -0.014382649 0.039600864
0001f0 eb 87 f9 bc 93 47 63 3d 04 8a 3a 3c 88 c4 02 3d
       -0.030460319 0.05548818 0.011385445 0.031925708
